…
[2019-12-18 12:45:31,211 INFO] loading file /mnt/beegfs/home/aliouat/.cache/torch/sentence_transformers/public.ukp.informatik.tu-darmstadt.de_reimers_sentence-transformers_v0.2_bert-base-nli-stsb-mean-tokens.zip/0_BERT/added_tokens.json
[2019-12-18 12:45:31,212 INFO] loading file /mnt/beegfs/home/aliouat/.cache/torch/sentence_transformers/public.ukp.informatik.tu-darmstadt.de_reimers_sentence-transformers_v0.2_bert-base-nli-stsb-mean-tokens.zip/0_BERT/special_tokens_map.json
[2019-12-18 12:45:31,213 INFO] loading file None
[2019-12-18 12:45:31,326 INFO] Use pytorch device: cuda
[2019-12-18 12:45:34,062 INFO] ExtSummarizer(
  (SBert): SBert(
    (model): DataParallel(
      (module): SentenceTransformer(
        (0): BERT(
          (bert): BertModel(
            (embeddings): BertEmbeddings(
              (word_embeddings): Embedding(30522, 768, padding_idx=0)
              (position_embeddings): Embedding(512, 768)
              (token_type_embeddings): Embedding(2, 768)
              (LayerNorm): LayerNorm((768,), eps=1e-12, elementwise_affine=True)
              (dropout): Dropout(p=0.1, inplace=False)
            )
            (encoder): BertEncoder(
              (layer): ModuleList(
                (0): BertLayer(
                  (attention): BertAttention(
                    (self): BertSelfAttention(
                      (query): Linear(in_features=768, out_features=768, bias=True)
                      (key): Linear(in_features=768, out_features=768, bias=True)
                      (value): Linear(in_features=768, out_features=768, bias=True)
                      (dropout): Dropout(p=0.1, inplace=False)
                    )
                    (output): BertSelfOutput(
                      (dense): Linear(in_features=768, out_features=768, bias=True)
                      (LayerNorm): LayerNorm((768,), eps=1e-12, elementwise_affine=True)
                      (dropout): Dropout(p=0.1, inplace=False)
                    )
                  )
                  (intermediate): BertIntermediate(
                    (dense): Linear(in_features=768, out_features=3072, bias=True)
                  )
                  (output): BertOutput(
                    (dense): Linear(in_features=3072, out_features=768, bias=True)
                    (LayerNorm): LayerNorm((768,), eps=1e-12, elementwise_affine=True)
                    (dropout): Dropout(p=0.1, inplace=False)
                  )
                )
                (1): BertLayer(
                  (attention): BertAttention(
                    (self): BertSelfAttention(
                      (query): Linear(in_features=768, out_features=768, bias=True)
                      (key): Linear(in_features=768, out_features=768, bias=True)
                      (value): Linear(in_features=768, out_features=768, bias=True)
                      (dropout): Dropout(p=0.1, inplace=False)
                    )
                    (output): BertSelfOutput(
                      (dense): Linear(in_features=768, out_features=768, bias=True)
                      (LayerNorm): LayerNorm((768,), eps=1e-12, elementwise_affine=True)
                      (dropout): Dropout(p=0.1, inplace=False)
                    )
                  )
                  (intermediate): BertIntermediate(
                    (dense): Linear(in_features=768, out_features=3072, bias=True)
                  )
                  (output): BertOutput(
                    (dense): Linear(in_features=3072, out_features=768, bias=True)
                    (LayerNorm): LayerNorm((768,), eps=1e-12, elementwise_affine=True)
                    (dropout): Dropout(p=0.1, inplace=False)
                  )
                )
                (2): BertLayer(
                  (attention): BertAttention(
                    (self): BertSelfAttention(
                      (query): Linear(in_features=768, out_features=768, bias=True)
                      (key): Linear(in_features=768, out_features=768, bias=True)
                      (value): Linear(in_features=768, out_features=768, bias=True)
                      (dropout): Dropout(p=0.1, inplace=False)
                    )
                    (output): BertSelfOutput(
                      (dense): Linear(in_features=768, out_features=768, bias=True)
                      (LayerNorm): LayerNorm((768,), eps=1e-12, elementwise_affine=True)
                      (dropout): Dropout(p=0.1, inplace=False)
                    )
                  )
                  (intermediate): BertIntermediate(
                    (dense): Linear(in_features=768, out_features=3072, bias=True)
                  )
                  (output): BertOutput(
                    (dense): Linear(in_features=3072, out_features=768, bias=True)
                    (LayerNorm): LayerNorm((768,), eps=1e-12, elementwise_affine=True)
                    (dropout): Dropout(p=0.1, inplace=False)
                  )
                )
                (3): BertLayer(
                  (attention): BertAttention(
                    (self): BertSelfAttention(
                      (query): Linear(in_features=768, out_features=768, bias=True)
                      (key): Linear(in_features=768, out_features=768, bias=True)
                      (value): Linear(in_features=768, out_features=768, bias=True)
                      (dropout): Dropout(p=0.1, inplace=False)
                    )
                    (output): BertSelfOutput(
                      (dense): Linear(in_features=768, out_features=768, bias=True)
                      (LayerNorm): LayerNorm((768,), eps=1e-12, elementwise_affine=True)
                      (dropout): Dropout(p=0.1, inplace=False)
                    )
                  )
                  (intermediate): BertIntermediate(
                    (dense): Linear(in_features=768, out_features=3072, bias=True)
                  )
                  (output): BertOutput(
                    (dense): Linear(in_features=3072, out_features=768, bias=True)
                    (LayerNorm): LayerNorm((768,), eps=1e-12, elementwise_affine=True)
                    (dropout): Dropout(p=0.1, inplace=False)
                  )
                )
                (4): BertLayer(
                  (attention): BertAttention(
                    (self): BertSelfAttention(
                      (query): Linear(in_features=768, out_features=768, bias=True)
                      (key): Linear(in_features=768, out_features=768, bias=True)
                      (value): Linear(in_features=768, out_features=768, bias=True)
                      (dropout): Dropout(p=0.1, inplace=False)
                    )
                    (output): BertSelfOutput(
                      (dense): Linear(in_features=768, out_features=768, bias=True)
                      (LayerNorm): LayerNorm((768,), eps=1e-12, elementwise_affine=True)
                      (dropout): Dropout(p=0.1, inplace=False)
                    )
                  )
                  (intermediate): BertIntermediate(
                    (dense): Linear(in_features=768, out_features=3072, bias=True)
                  )
                  (output): BertOutput(
                    (dense): Linear(in_features=3072, out_features=768, bias=True)
                    (LayerNorm): LayerNorm((768,), eps=1e-12, elementwise_affine=True)
                    (dropout): Dropout(p=0.1, inplace=False)
                  )
                )
                (5): BertLayer(
                  (attention): BertAttention(
                    (self): BertSelfAttention(
                      (query): Linear(in_features=768, out_features=768, bias=True)
                      (key): Linear(in_features=768, out_features=768, bias=True)
                      (value): Linear(in_features=768, out_features=768, bias=True)
                      (dropout): Dropout(p=0.1, inplace=False)
                    )
                    (output): BertSelfOutput(
                      (dense): Linear(in_features=768, out_features=768, bias=True)
                      (LayerNorm): LayerNorm((768,), eps=1e-12, elementwise_affine=True)
                      (dropout): Dropout(p=0.1, inplace=False)
                    )
                  )
                  (intermediate): BertIntermediate(
                    (dense): Linear(in_features=768, out_features=3072, bias=True)
                  )
                  (output): BertOutput(
                    (dense): Linear(in_features=3072, out_features=768, bias=True)
                    (LayerNorm): LayerNorm((768,), eps=1e-12, elementwise_affine=True)
                    (dropout): Dropout(p=0.1, inplace=False)
                  )
                )
                (6): BertLayer(
                  (attention): BertAttention(
                    (self): BertSelfAttention(
                      (query): Linear(in_features=768, out_features=768, bias=True)
                      (key): Linear(in_features=768, out_features=768, bias=True)
                      (value): Linear(in_features=768, out_features=768, bias=True)
                      (dropout): Dropout(p=0.1, inplace=False)
                    )
                    (output): BertSelfOutput(
                      (dense): Linear(in_features=768, out_features=768, bias=True)
                      (LayerNorm): LayerNorm((768,), eps=1e-12, elementwise_affine=True)
                      (dropout): Dropout(p=0.1, inplace=False)
                    )
                  )
                  (intermediate): BertIntermediate(
                    (dense): Linear(in_features=768, out_features=3072, bias=True)
                  )
                  (output): BertOutput(
                    (dense): Linear(in_features=3072, out_features=768, bias=True)
                    (LayerNorm): LayerNorm((768,), eps=1e-12, elementwise_affine=True)
                    (dropout): Dropout(p=0.1, inplace=False)
                  )
                )
                (7): BertLayer(
                  (attention): BertAttention(
                    (self): BertSelfAttention(
                      (query): Linear(in_features=768, out_features=768, bias=True)
                      (key): Linear(in_features=768, out_features=768, bias=True)
                      (value): Linear(in_features=768, out_features=768, bias=True)
                      (dropout): Dropout(p=0.1, inplace=False)
                    )
                    (output): BertSelfOutput(
                      (dense): Linear(in_features=768, out_features=768, bias=True)
                      (LayerNorm): LayerNorm((768,), eps=1e-12, elementwise_affine=True)
                      (dropout): Dropout(p=0.1, inplace=False)
                    )
                  )
                  (intermediate): BertIntermediate(
                    (dense): Linear(in_features=768, out_features=3072, bias=True)
                  )
                  (output): BertOutput(
                    (dense): Linear(in_features=3072, out_features=768, bias=True)
                    (LayerNorm): LayerNorm((768,), eps=1e-12, elementwise_affine=True)
                    (dropout): Dropout(p=0.1, inplace=False)
                  )
                )
                (8): BertLayer(
                  (attention): BertAttention(
                    (self): BertSelfAttention(
                      (query): Linear(in_features=768, out_features=768, bias=True)
                      (key): Linear(in_features=768, out_features=768, bias=True)
                      (value): Linear(in_features=768, out_features=768, bias=True)
                      (dropout): Dropout(p=0.1, inplace=False)
                    )
                    (output): BertSelfOutput(
                      (dense): Linear(in_features=768, out_features=768, bias=True)
                      (LayerNorm): LayerNorm((768,), eps=1e-12, elementwise_affine=True)
                      (dropout): Dropout(p=0.1, inplace=False)
                    )
                  )
                  (intermediate): BertIntermediate(
                    (dense): Linear(in_features=768, out_features=3072, bias=True)
                  )
                  (output): BertOutput(
                    (dense): Linear(in_features=3072, out_features=768, bias=True)
                    (LayerNorm): LayerNorm((768,), eps=1e-12, elementwise_affine=True)
                    (dropout): Dropout(p=0.1, inplace=False)
                  )
                )
                (9): BertLayer(
                  (attention): BertAttention(
                    (self): BertSelfAttention(
                      (query): Linear(in_features=768, out_features=768, bias=True)
                      (key): Linear(in_features=768, out_features=768, bias=True)
                      (value): Linear(in_features=768, out_features=768, bias=True)
                      (dropout): Dropout(p=0.1, inplace=False)
                    )
                    (output): BertSelfOutput(
                      (dense): Linear(in_features=768, out_features=768, bias=True)
                      (LayerNorm): LayerNorm((768,), eps=1e-12, elementwise_affine=True)
                      (dropout): Dropout(p=0.1, inplace=False)
                    )
                  )
                  (intermediate): BertIntermediate(
                    (dense): Linear(in_features=768, out_features=3072, bias=True)
                  )
                  (output): BertOutput(
                    (dense): Linear(in_features=3072, out_features=768, bias=True)
                    (LayerNorm): LayerNorm((768,), eps=1e-12, elementwise_affine=True)
                    (dropout): Dropout(p=0.1, inplace=False)
                  )
                )
                (10): BertLayer(
                  (attention): BertAttention(
                    (self): BertSelfAttention(
                      (query): Linear(in_features=768, out_features=768, bias=True)
                      (key): Linear(in_features=768, out_features=768, bias=True)
                      (value): Linear(in_features=768, out_features=768, bias=True)
                      (dropout): Dropout(p=0.1, inplace=False)
                    )
                    (output): BertSelfOutput(
                      (dense): Linear(in_features=768, out_features=768, bias=True)
                      (LayerNorm): LayerNorm((768,), eps=1e-12, elementwise_affine=True)
                      (dropout): Dropout(p=0.1, inplace=False)
                    )
                  )
                  (intermediate): BertIntermediate(
                    (dense): Linear(in_features=768, out_features=3072, bias=True)
                  )
                  (output): BertOutput(
                    (dense): Linear(in_features=3072, out_features=768, bias=True)
                    (LayerNorm): LayerNorm((768,), eps=1e-12, elementwise_affine=True)
                    (dropout): Dropout(p=0.1, inplace=False)
                  )
                )
                (11): BertLayer(
                  (attention): BertAttention(
                    (self): BertSelfAttention(
                      (query): Linear(in_features=768, out_features=768, bias=True)
                      (key): Linear(in_features=768, out_features=768, bias=True)
                      (value): Linear(in_features=768, out_features=768, bias=True)
                      (dropout): Dropout(p=0.1, inplace=False)
                    )
                    (output): BertSelfOutput(
                      (dense): Linear(in_features=768, out_features=768, bias=True)
                      (LayerNorm): LayerNorm((768,), eps=1e-12, elementwise_affine=True)
                      (dropout): Dropout(p=0.1, inplace=False)
                    )
                  )
                  (intermediate): BertIntermediate(
                    (dense): Linear(in_features=768, out_features=3072, bias=True)
                  )
                  (output): BertOutput(
                    (dense): Linear(in_features=3072, out_features=768, bias=True)
                    (LayerNorm): LayerNorm((768,), eps=1e-12, elementwise_affine=True)
                    (dropout): Dropout(p=0.1, inplace=False)
                  )
                )
              )
            )
            (pooler): BertPooler(
              (dense): Linear(in_features=768, out_features=768, bias=True)
              (activation): Tanh()
            )
          )
        )
        (1): Pooling()
      )
    )
  )
  (ext_layer): ExtTransformerEncoder(
    (pos_emb): PositionalEncoding(
      (dropout): Dropout(p=0.1, inplace=False)
    )
    (transformer_inter): ModuleList(
      (0): TransformerEncoderLayer(
        (self_attn): MultiHeadedAttention(
          (linear_keys): Linear(in_features=768, out_features=768, bias=True)
          (linear_values): Linear(in_features=768, out_features=768, bias=True)
          (linear_query): Linear(in_features=768, out_features=768, bias=True)
          (softmax): Softmax(dim=-1)
          (dropout): Dropout(p=0.1, inplace=False)
          (final_linear): Linear(in_features=768, out_features=768, bias=True)
        )
        (feed_forward): PositionwiseFeedForward(
          (w_1): Linear(in_features=768, out_features=2048, bias=True)
          (w_2): Linear(in_features=2048, out_features=768, bias=True)
          (layer_norm): LayerNorm((768,), eps=1e-06, elementwise_affine=True)
          (dropout_1): Dropout(p=0.1, inplace=False)
          (dropout_2): Dropout(p=0.1, inplace=False)
        )
        (layer_norm): LayerNorm((768,), eps=1e-06, elementwise_affine=True)
        (dropout): Dropout(p=0.1, inplace=False)
      )
      (1): TransformerEncoderLayer(
        (self_attn): MultiHeadedAttention(
          (linear_keys): Linear(in_features=768, out_features=768, bias=True)
          (linear_values): Linear(in_features=768, out_features=768, bias=True)
          (linear_query): Linear(in_features=768, out_features=768, bias=True)
          (softmax): Softmax(dim=-1)
          (dropout): Dropout(p=0.1, inplace=False)
          (final_linear): Linear(in_features=768, out_features=768, bias=True)
        )
        (feed_forward): PositionwiseFeedForward(
          (w_1): Linear(in_features=768, out_features=2048, bias=True)
          (w_2): Linear(in_features=2048, out_features=768, bias=True)
          (layer_norm): LayerNorm((768,), eps=1e-06, elementwise_affine=True)
          (dropout_1): Dropout(p=0.1, inplace=False)
          (dropout_2): Dropout(p=0.1, inplace=False)
        )
        (layer_norm): LayerNorm((768,), eps=1e-06, elementwise_affine=True)
        (dropout): Dropout(p=0.1, inplace=False)
      )
    )
    (dropout): Dropout(p=0.1, inplace=False)
    (layer_norm): LayerNorm((768,), eps=1e-06, elementwise_affine=True)
    (wo): Linear(in_features=768, out_features=1, bias=True)
    (sigmoid): Sigmoid()
  )
)
[2019-12-18 12:45:34,071 INFO] * number of parameters: 120512513
[2019-12-18 12:45:34,072 INFO] Start training...
[2019-12-18 12:45:34,198 INFO] Loading train dataset from ../bert_data/xsum.train.88.bert.pt, number of examples: 1988
[2019-12-18 12:47:37,099 INFO] Loading train dataset from ../bert_data/xsum.train.99.bert.pt, number of examples: 1991
…
